best_model.pth (torch, 13926 bytes, 5 tensors)

hidden1.weight f4 [64, 10]
-0.11408353 0.017252201 -0.27545005 -0.14519009 -0.04641746 0.25231612 0.00918551 -0.11543558
0.23241796 -0.036993213 0.10173827 -0.2617025 0.27920532 0.0671976 -0.31319657 0.24126203
-0.05611328 0.19914417 -0.1739173 -0.09891738 0.039757594 -0.12693763 -0.2320642 0.30380416
0.229661 -0.06851018 -0.121982165 -0.11055457 -0.2363053 0.23039941 0.22579318 0.14807644
0.03874233 -0.24800321 -0.11705159 -0.10663228 0.22482982 -0.15554135 0.15790862 -0.05439956
-0.08297795 -0.15285066 -0.29519063 0.28362617 -0.17412366 -0.21584973 -0.23250337 -0.041372396
-0.09648368 0.13891247 -0.29211614 0.12440542 -0.267791 -0.13640171 -0.23139006 -0.09489361
-0.16939092 -0.049129516 -0.19033511 -0.10360613 0.093409695 0.29439712 -0.11995394 0.19586398
-0.14335494 -0.028166432 -0.23996875 -0.24812803 -0.052320704 -0.040785108 -0.06327109 -0.1886537
-0.27474114 -0.10527563 -0.08620823 0.16565865 0.05111737 0.04188387 0.25074068 0.1772903
0.20196785 -0.2242419 -0.00627739 0.3139256 -0.3136318 -0.18105946 0.0821367 0.12137433
0.05330943 0.20604485 -0.2516834 -0.22307031 0.25101337 -0.20314626 0.19903633 0.0444039
0.10311075 -0.08807911 -0.23111147 0.095958106 -0.11923305 0.24456455 -0.28437695 -0.11663612
0.16262655 -0.2957123 -0.1056817 -0.09470135 -0.29428965 -0.035325035 0.056448597 -0.03083099
0.18903403 -0.09185641 0.15223978 0.26748106 0.09752695 -0.05719357 0.011528396 0.023141498
-0.082767524 0.23683332 0.01156745 0.31257802 -0.090547636 0.12615179 0.040924363 0.12768587
-0.041075416 -0.27308983 -0.27180788 0.14000286 -0.16256993 -0.00080932304 -0.23808819 -0.20070039
-0.14290352 0.062118456 0.035893396 0.07011013 -0.1517629 0.26376757 -0.23641355 -0.09359848
-0.2546921 0.29543477 0.051773604 0.27611336 0.09133321 -0.27544183 -0.26492465 0.13945882
-0.025790863 0.2526454 0.21119355 0.14346671 -0.087846965 -0.21948782 0.3074275 0.18237378
-0.30870187 -0.21743788 -0.2170646 -0.30067325 -0.16325797 -0.09186414 0.019655554 -0.28657696
0.047158137 0.21570203 0.19571632 0.27432707 0.044274785 -0.27103058 0.031754952 0.13492376
-0.26541394 -0.014690519 -0.008779924 0.03693354 0.25641668 -0.2568369 -0.09621656 0.15781803
-0.30826738 0.17000553 -0.20961799 0.1647088 0.07161697 -0.26909772 -0.13652891 -0.054094363
0.23709324 -0.2821951 0.25191328 -0.13272494 0.16797104 0.039291997 0.26819697 -0.25669414
0.06140394 -0.21302141 -0.21306436 -0.31169114 0.13222173 -0.036537454 0.14092244 0.13127704
-0.15667535 -0.04400819 0.28836584 0.063556306 -0.29712903 -0.26927865 -0.000401363 -0.124490656
-0.1441168 0.07914896 0.015424787 -0.116100214 0.114820994 0.26158702 -0.28109893 0.15819867
0.030549165 0.18387467 -0.07978521 -0.23007627 0.05340371 0.23141184 -0.21893224 0.10793276
0.27731538 -0.03821012 0.22126241 0.10159709 0.10098142 -0.13287717 0.24290526 0.20656364
-0.08639924 -0.18724209 -0.09828392 -0.30624056 -0.26522195 0.27945027 -0.2506831 0.28398517
-0.31210786 0.05265704 -0.22861716 0.09923792 0.24691463 -0.041355696 -0.1957041 0.16948505
00000000: a0a4 e9bd 7d54 8d3c ca07 8dbe b6ac 14be
00000010: 3c20 3ebd 942f 813e d27e 163c 7d69 ecbd
00000020: f9fe 6d3e 3286 17bd 275c d03d dffd 85be
00000030: 00f4 8e3e e59e 893d 4d5b a0be 650d 773e
00000040: 0ad7 65bd 73ec 4b3e 6017 32be 3295 cabd
00000050: dcd8 223d f0fb 01be 3da2 6dbe 388c 9b3e
00000060: 412c 6b3e 114f 8cbd c9d1 f9bd 6f6a e2bd
00000070: 04fa 71be d3ed 6b3e 5436 673e 5aa1 173e
00000080: 47b0 1e3d 8ef4 7dbe beb8 efbd 0662 dabd
00000090: ca39 663e 3b46 1fbe ccb2 213e 13d2 5ebd
000000a0: 58f0 a9bd e284 1cbe 3a23 97be 7337 913e
000000b0: 794d 32be b607 5dbe 5d15 6ebe 1a76 29bd
000000c0: 3c99 c5bd 123f 0e3e 3f90 95be 45c8 fe3d
000000d0: e71b 89be e4ac 0bbe 84f1 6cbe 9557 c2bd
000000e0: d074 2dbe 083c 49bd 35e7 42be 732f d4bd
000000f0: 954d bf3d 38bb 963e 69aa f5bd 9190 483e
00000100: a3cb 12be 4abd e6bc 5eba 75be 4615 7ebe
00000110: 3c4e 56bd 490e 27bd 4694 81bd 6f2e 41be
00000120: dfaa 8cbe c09a d7bd f18d b0bd 6ca2 293e
00000130: 7360 513d 6c8e 2b3d 1561 803e 978b 353e
00000140: a9d0 4e3e ab9f 65be 90b2 cdbb dbba a03e
00000150: 5994 a0be a767 39be 4937 a83d 1b93 f83d
00000160: fd5a 5a3d 6cfd 523e a6dc 80be 8b6c 64be
00000170: d384 803e 9305 50be 2ed0 4b3e dde0 353d
00000180: bb2b d33d d262 b4bd 7ca8 6cbe af85 c43d
00000190: 7530 f4bd 216f 7a3e db99 91be ebde eebd
000001a0: 9387 263e 9a67 97be a66f d8bd c8f2 c1bd
000001b0: 22ad 96be fcb0 10bd a536 673d 4691 fcbc
000001c0: 2392 413e 371f bcbd bfe4 1b3e 47f3 883e
000001d0: 36bc c73d ce43 6abd 99e1 3c3c 3d93 bd3c
000001e0: 0582 a9bd 6f84 723e 6785 3d3c 3a0a a03e
000001f0: 0a71 b9bd ef2d 013e 4ea0 273d 16c0 023e
00000200: b23e 28bd 6ed2 8bbe 672a 8bbe e95c 0f3e
00000210: bb78 26be c028 54ba 64cd 73be 6784 4dbe
00000220: 4d55 12be ec6f 7e3d f404 133d e695 8f3d
00000230: bc67 1bbe 8b0c 873e 6516 72be 8fb0 bfbd
00000240: 0167 82be 3a43 973e 8f10 543d bb5e 8d3e
00000250: e80c bb3d b606 8dbe 34a4 87be 4bce 0e3e
00000260: 5c47 d3bc bd5a 813e 1f43 583e f0e8 123e
00000270: 1ce9 b3bd 6ac1 60be 2367 9d3e 31c0 3a3e
00000280: 2c0e 9ebe 09a8 5ebe 2f46 5ebe d8f1 99be
00000290: 192d 27be 4423 bcbd af04 a13c 37ba 92be
000002a0: e428 413d fee0 5c3e dc69 483e 9974 8c3e
000002b0: 7a59 353d 85c4 8abe 7b11 023d 7429 0a3e
000002c0: 56e4 87be 81b0 70bc acd9 0fbc a047 173d
000002d0: 0c49 833e 2080 83be 300d c5bd 0d9b 213e
000002e0: 39d5 9dbe ee15 2e3e 19a6 56be 6ca9 283e
000002f0: ebab 923d 2dc7 89be 3cce 0bbe 0d92 5dbd
00000300: 92c8 723e e07b 90be c7fa 803e 0ce9 07be
00000310: 9a00 2c3e a5f0 203d 1d51 893e 6a6d 83be
00000320: b382 7b3d 4922 5abe 8b2d 5abe fb95 9fbe
00000330: 2265 073e 4ca8 15bd f94d 103e 7d6d 063e
00000340: 816f 20be ef41 34bd b0a4 933e cf29 823d
00000350: 4c21 98be e4de 89be 086e d2b9 f5f4 febd
00000360: 5b93 13be da18 a23d 3fb8 7c3c f3c5 edbd
00000370: 4527 eb3d bcee 853e 33ec 8fbe d5fe 213e
00000380: 3e42 fa3c a449 3c3e 6e66 a3bd 1d99 6bbe
00000390: d9bd 5a3d 3af7 6c3e c62f 60be da0b dd3d
000003a0: 48fc 8d3e 3782 1cbd 9d92 623e 2312 d03d
000003b0: 59cf ce3d f410 08be 28bc 783e 6b85 533e
000003c0: 16f2 b0bd 64bc 3fbe 1449 c9bd 90cb 9cbe
000003d0: 2ccb 87be 1b14 8f3e 8959 80be 8166 913e
000003e0: 9acc 9fbe e9ae 573d 9e1a 6abe 403d cb3d
000003f0: 30d7 7c3e 9764 29bd a866 48be 7d8d 2d3e

hidden1.bias f4 [64]
-0.03744068 -0.073079094 -0.2491922 -0.082427 0.10793344 0.019322649 -0.03607668 0.11921469
-0.0010404828 -0.11710888 0.16051437 -0.23479348 -0.23711805 -0.23330511 -0.18818185 -0.09412764
0.23038192 0.12279443 -0.31586713 -0.3082497 0.13176924 -0.013442098 0.0017423686 0.2522704
0.13369596 -0.25996014 0.2147498 0.139471 0.2382173 -0.1615086 -0.20606114 -0.1942891
0.043376684 0.21236427 -0.08671341 0.042448692 0.31020632 0.003266583 0.058520213 -0.03064352
-0.049995687 -0.26117876 -0.18681113 0.03297382 0.10519933 0.03972442 0.114987284 -0.07727729
-0.00037998866 -0.25377586 -0.10098059 0.101601504 -0.13724843 -0.0016759837 -0.07912973 0.1370144
-0.14528972 0.013958137 0.26602966 0.094175965 -0.17636245 -0.031759474 0.22187206 0.21660568
00000000: 665b 19bd 7eaa 95bd 3d2c 7fbe 7dcf a8bd
00000010: 350c dd3d 884a 9e3c 24c5 13bd d526 f43d
00000020: cf60 88ba c8d6 efbd e15d 243e b46d 70be
00000030: 13cf 72be 89e7 6ebe beb2 40be fec5 c0bd
00000040: 3de9 6b3e a57b fb3d 56b9 a1be e8d2 9dbe
00000050: 84ee 063e 3f3c 5cbc 3060 e43a 9629 813e
00000060: 98e7 083e 7f19 85be 5fe7 5b3e 7cd1 0e3e
00000070: 3cef 733e 8362 25be b101 53be b9f3 46be
00000080: c0ab 313d 0576 593e cd96 b1bd aede 2d3d
00000090: 5dd3 9e3e 2b14 563b e4b2 6f3d 1f08 fbbc
000000a0: 47c8 4cbd 39b9 85be 6b4b 3fbe 8e0f 073d
000000b0: bf72 d73d 13b6 223d 747e eb3d 8e43 9ebd
000000c0: 3739 c7b9 e9ee 81be e9ce cebd 7314 d03d
000000d0: da8a 0cbe aeac dbba c50e a2bd 814d 0c3e
000000e0: d4c6 14be abb0 643c 0a35 883e 54df c03d
000000f0: 5c98 34be 3916 02bd 6e32 633e e1cd 5d3e

hidden2.weight f4 [32, 64]
0.03816001 0.051757097 -0.098141775 -0.00811547 -0.035579056 0.039024144 -0.0841085 -0.09689151
-0.11686398 0.071420684 -0.05770813 0.095819175 0.118654415 -0.096760824 -0.032792956 0.031579837
0.028449565 -0.019936666 -0.042438805 0.12199207 0.07475376 0.0664265 0.08971442 -0.1229728
0.11864139 -0.02358301 0.054816842 -0.09603508 0.058115512 -0.07542877 0.003014207 0.07909827
-0.08650498 0.1137995 0.11240846 0.05881387 -0.0904403 -0.045410067 0.06496191 0.10065946
0.07630518 -0.07499117 0.07446757 -0.10423952 -0.008112624 -0.06652135 0.074133426 -0.11153352
-0.018440321 -0.045064583 0.054236114 0.08421643 0.055169284 0.06170003 0.096566424 -0.109220415
0.11436963 -0.08149727 0.10996519 -0.11999458 -0.06590551 -0.120305955 -0.08315988 0.111965075
0.09142095 0.07384403 -0.08688085 0.07200767 -0.042282566 0.048018053 0.028679177 -0.1137297
-0.006722361 0.077623874 0.015676722 0.048202544 0.023591056 -0.06836742 0.028077736 0.029736236
-0.07997115 -0.013816133 -0.01113458 -0.082211256 -0.072152734 0.0050949007 -0.026669845 0.042861745
0.020036533 0.0032806396 -0.102425635 -0.05982411 -0.038743764 0.080534264 0.09038593 -0.09041774
0.07225871 0.027289718 -0.04761699 -0.035876587 -0.105464146 0.038211107 -0.013885438 -0.008670241
-0.0363494 -0.08070834 -0.081729785 0.08130328 0.031928524 0.0714502 0.036847174 -0.0517997
0.09771748 -0.056460336 0.023127794 0.014277771 -0.10075575 0.10705435 0.08486144 0.041408375
0.12052238 0.11919421 -0.023021951 0.05302918 -0.0392638 -0.09834847 0.012174711 -0.027103513
0.092280135 0.00022771955 0.0048772544 0.051467434 0.12206063 -0.03807667 -0.08215453 -0.018394813
-0.098612845 0.009921834 0.0027757287 -0.0063533783 0.045919463 0.0043099076 -0.037743136 0.018441603
-0.08885452 0.08189286 -0.025586694 0.0652599 -0.003706023 0.07756415 0.0832157 -0.12437646
-0.083634466 -0.1092554 -0.0004299432 -0.038590595 -0.0019126683 0.07589224 -0.025061011 -0.00012427568
0.020137846 0.08664605 0.047325507 0.094681606 -0.04785447 0.021091312 0.026775122 -0.10028264
0.0007837862 0.12193735 0.0675427 0.07603793 0.022314087 -0.052510276 0.06829642 -0.074116826
0.044242322 0.11961457 -0.038908347 0.10201065 0.033316866 -0.06811789 -0.047510996 -0.05161874
0.001518026 0.11920367 -0.036698267 -0.03596121 0.06309807 0.01378265 -0.04418096 -0.070534036
-0.045440152 0.11970551 -0.08184007 0.05151762 0.042939395 0.036318034 0.11626673 -0.001623705
-0.08725442 0.010165811 -0.07198146 -0.012393594 -0.09595303 -0.048833683 0.03185442 0.1004865
0.12109797 0.09326638 -0.050438866 -0.036395848 0.10588339 0.050944895 -0.08830005 -0.07181965
0.0082525015 -0.017415777 -0.05832541 0.0033085942 0.055537477 -0.10488029 -0.063342616 -0.00043684244
0.113457575 -0.010350645 -0.116430074 0.031063974 0.097606644 -0.10039838 0.016614929 0.079612106
0.023191243 0.12270686 -0.09481943 0.03435366 0.11289473 0.1168033 0.06963624 -0.06437668
-0.08258864 0.0184246 -0.057669 -0.053035736 0.060515672 0.017098218 -0.04505743 -0.120559305
0.07690257 -0.060845166 0.083487585 0.04509689 -0.011153117 0.06134586 -0.039143085 -0.09131931
00000000: ac4d 1c3d 40ff 533d 8efe c8bd c0f6 04bc
00000010: 58bb 11bd c8d7 1f3d 1441 acbd 0e6f c6bd
00000020: 6256 efbd 0245 923d 5c5f 6cbd d83c c43d
00000030: 1601 f33d 8a2a c6bd e851 06bd dc59 013d
00000040: 100f e93c 3852 a3bc 50d4 2dbd fad6 f93d
00000050: 8018 993d 9e0a 883d 32bc b73d 2ad9 fbbd
00000060: 42fa f23d 2831 c1bc a087 603d 0aae c4bd
00000070: 880a 6e3d 667a 9abd 008a 453b 46fe a13d
00000080: 8629 b1bd b60f e93d 6836 e63d d0e6 703d
00000090: c438 b9bd e8ff 39bd c00a 853d 8c26 ce3d
000000a0: e445 9c3d f894 99bd 7482 983d 887b d5bd
000000b0: d0ea 04bc 583c 88bd 44d3 973d b06b e4bd
000000c0: 2810 97bc a495 38bd b026 5e3d aa79 ac3d
000000d0: 30f9 613d 2cb9 7c3d 9ec4 c53d f4ae dfbd
000000e0: a03a ea3d 0ae8 a6bd 6e35 e13d b8bf f5bd
000000f0: 78f9 86bd f862 f6bd ba4f aabd f24d e53d
00000100: e83a bb3d 8a3b 973d 96ee b1bd c278 933d
00000110: 7c30 2dbd 94ae 443d 98f0 ea3c 1eeb e8bd
00000120: 4047 dcbb 44f9 9e3d 786c 803c 0870 453d
00000130: 0842 c13c 3804 8cbd 4803 e63c 6899 f33c
00000140: eac7 a3bd 105d 62bc d06d 36bc 605e a8bd
00000150: d0c4 93bd 20f3 a63b b87a dabc cc8f 2f3d
00000160: a823 a43c 0000 573b 88c4 d1bd 200a 75bd
00000170: c8b1 1ebd 26ef a43d 421c b93d f02c b9bd
00000180: 60fc 933d b08e df3c 080a 43bd 54f3 12bd
00000190: 96fd d7bd 4083 1c3d c07f 63bc a00d 0ebc
000001a0: 1ce3 14bd 6a4a a5bd f261 a7bd 5682 a63d
000001b0: 7cc7 023d 7c54 923d 10ed 163d ec2b 54bd
000001c0: 1a20 c83d f442 67bd 8076 bd3c 50ed 693c
000001d0: 0859 cebd 503f db3d d6cb ad3d d49b 293d
000001e0: 70d4 f63d 181c f43d 8898 bcbc 2035 593d
000001f0: 14d3 20bd ec6a c9bd 7078 473c 3008 debc
00000200: 5efd bc3d 00c8 6e39 60d1 9f3b 84cf 523d
00000210: ecfa f93d 48f6 1bbd a240 a8bd b8b0 96bc
00000220: 88f5 c9bd 308f 223c 00e9 353b 0030 d0bb
00000230: 0c16 3c3d 203a 8d3b 8c98 1abd d812 973c
00000240: 5cf9 b5bd 72b7 a73d 309b d1bc fca6 853d
00000250: c0e0 72bb f4d9 9e3d fe6c aa3d 16b9 febd
00000260: 8c48 abbd 4cc1 dfbd 006a e1b9 2c11 1ebd
00000270: 80b2 faba 646d 9b3d c04c cdbc 0050 02b9
00000280: 20f8 a43c 7c73 b13d 64d8 413d 6ee8 c13d
00000290: 0c03 44bd b0c7 ac3c 8057 db3c fc60 cdbd
000002a0: 0077 4d3a 4aba f93d d453 8a3d c6b9 9b3d
000002b0: 08cc b63c 0415 57bd fede 8b3d 90ca 97bd
000002c0: 7037 353d 7cf8 f43d 5c5e 1fbd f6ea d03d
000002d0: 4477 083d 6481 8bbd e49a 42bd 2c6e 53bd
000002e0: 80f8 c63a 0e21 f43d ec50 16bd 104c 13bd
000002f0: 9039 813d a0d0 613c 18f7 34bd 2674 90bd
00000300: 741f 3abd 2a28 f53d c49b a7bd 2404 533d
00000310: 38e1 2f3d 38c2 143d 401d ee3d 80d2 d4ba
00000320: 72b2 b2bd 808e 263c 046b 93bd 800e 4bbc
00000330: 0683 c4bd d405 48bd c879 023d decb cd3d
00000340: 3602 f83d 7202 bf3d fc98 4ebd d013 15bd
00000350: 64d9 d83d 98ab 503d a8d6 b4bd 2e16 93bd
00000360: 8035 073c 88ab 8ebc a0e6 6ebd 00d5 583b
00000370: 447b 633d 7acb d6bd c6b9 81bd 0008 e5b9
00000380: 725c e83d c095 29bc e472 eebd e079 fe3c
00000390: fee5 c73d aa9d cdbd 081c 883c ac0b a33d
000003a0: 90fb bd3c bc4d fb3d b030 c2bd 6cb6 0c3d
000003b0: 5a35 e73d 9236 ef3d 729d 8e3d ecd7 83bd
000003c0: 3c24 a9bd 30ef 963c 5436 6cbd 003c 59bd
000003d0: 48df 773d 9011 8c3c 248e 38bd cce7 f6bd
000003e0: 187f 9d3d c838 79bd 8afb aa3d 84b7 383d
000003f0: 90bb 36bc cc45 7b3d 8054 20bd 9e05 bbbd

hidden2.bias f4 [32]
0.0898204 -0.09749062 -0.08995496 0.060610965 -0.11732744 -0.101408854 -0.011215523 -0.022811472
-0.06602907 -0.096410826 0.019555092 0.027203277 0.101888254 -0.048182055 -0.10319327 -0.11106467
0.08824745 0.016403362 0.07429467 -0.12195982 0.0639167 0.0985733 0.059305534 -0.031119332
-0.09873763 -0.008696556 0.019223586 0.040651545 0.053942576 -0.014432535 -0.023564711 -0.055848107
00000000: c2f3 b73d 2aa9 c7bd 4e3a b8bd 3443 783d
00000010: 5e49 f0bd 72af cfbd 50c1 37bc 20df babc
00000020: 403a 87bd 0a73 c5bd 0032 a03c 68d9 de3c
00000030: caaa d03d 8c5a 45bd fe56 d3bd e075 e3bd
00000040: 14bb b43d 5860 863c ce27 983d 12c6 f9bd
00000050: c2e6 823d cce0 c93d 5cea 723d f8ed febc
00000060: f436 cabd 007c 0ebc c87a 9d3c 3c82 263d
00000070: e4f2 5c3d 7076 6cbc c80a c1bc fcc0 64bd

output.weight f4 [1, 32]
0.029299835 -0.11278294 0.060549214 -0.16726622 0.14032885 0.022328641 0.039186686 -0.0043085245
-0.070609204 0.03559849 0.006891494 -0.16180696 -0.05273064 0.08789554 0.062001847 0.08069273
0.13997908 0.1676424 -0.019679775 0.15759741 -0.054627374 -0.07220408 -0.07021045 0.083581395
0.08865214 -0.0029308286 0.13271335 0.036407523 0.061004106 0.13243482 0.13079202 0.1587369
00000000: 3506 f03c befa e6bd 7402 783d d647 2bbe
00000010: 5eb2 0f3e 8eea b63c 3882 203d 862e 8dbb
00000020: 8f9b 90bd b9cf 113d 0bd2 e13b b9b0 25be
00000030: 15fc 57bd 9402 b43d a6f5 7d3d 3b42 a53d
00000040: ad56 0f3e 73aa 2b3e 7b37 a1bc 3761 213e
00000050: f4c0 5fbd bcdf 93bd 7fca 8fbd b92c ab3d
00000060: 418f b53d 2513 40bb 02e6 073e 0e20 153d
00000070: 71df 793d fe9c 073e 58ee 053e ed8b 223e
